01-mnist/model.safetensors (safetensors, 406688 bytes, 2 tensors)

l1.weight f4 [128, 784]
-0.0379678 0.024887875 -0.0017306805 -0.021871082 -0.07195896 -0.07904219 0.0044590756 0.06923103
-0.054218158 0.03978713 -0.069528595 0.08632098 0.0026683882 0.07403223 0.027287267 -0.033959713
0.012397438 -0.061792392 -0.0023040622 -0.012180753 -0.0704927 0.07151759 -0.06724808 -0.007470973
0.03787659 0.022283897 0.05635248 -0.037134595 -0.081133865 -0.07443972 0.036881097 0.048873067
0.065845 0.014053933 -0.04216131 -0.0017528399 -0.08084312 0.05004515 0.038703598 0.016694972
-0.07065028 -0.055141225 0.005667136 0.07882882 0.04555944 -0.051020205 0.06899764 0.054849327
-0.043174583 0.013614077 -0.029203374 0.0033480823 -0.0804469 -0.013331346 0.023195237 -0.06681031
0.051209137 0.03811896 0.009755492 0.070787504 0.05446526 0.029826745 0.0013437803 0.08270417
0.050298676 0.006732799 0.05155336 -0.021144316 -0.055697594 0.04444747 0.05953544 -0.0711598
-0.053721868 -0.02026263 0.0711879 -0.004040401 -0.028514974 0.01875506 0.033154376 -0.025875932
0.014461968 -0.063986205 -0.0860308 0.013875626 0.0043879524 -0.015710741 0.07006423 -0.037496813
0.026415965 -0.053588945 -0.04598765 -0.08657602 0.043562494 0.03836876 -0.012246052 -0.038071938
-0.041204747 0.02873846 -0.0184567 0.07083763 -0.06586724 -0.08025781 0.018284062 -0.027378267
-0.021440173 -0.0047360263 0.07000808 0.08692992 0.00386455 -0.0709334 -0.006333072 0.030922525
0.0016494989 -0.02579853 0.060919866 -0.06447324 -0.082770064 -0.056085426 0.009964546 0.030388558
0.052459635 -0.08943828 0.03963998 -0.01404559 0.049694788 0.041983303 -0.08219811 -0.0434167
0.07434203 -0.049691465 -0.003171866 -0.03698593 -0.03449844 -0.0035439022 -0.005858534 -0.012765711
0.0069021494 0.034522835 0.025495049 0.04163529 -0.047274895 0.028874837 0.0026681349 -0.034430884
-0.063141346 0.07912215 0.03568942 -0.048569806 -0.061032254 0.006200613 -0.079098076 -0.08847087
0.012532389 -0.007088928 -0.07132282 0.0030107538 0.06908679 -0.08443911 0.04359079 0.03195711
-0.028758077 0.055459797 -0.033863824 -0.033907916 0.014596116 0.0066317194 -0.0021225384 -0.065275006
-0.0063043833 -0.034532882 0.041654266 0.02573682 -0.027606552 -0.0741233 0.031898245 -0.021903265
-0.036392476 0.05249945 -0.08481511 0.016279476 -0.08891374 -0.05196288 -0.018881226 0.039690427
0.0033210253 -0.0064182673 -0.022717297 -0.031644862 -0.06997971 0.03585607 -0.07827452 0.072668985
0.08700605 0.0065366193 -0.04014891 -0.010748547 -0.04942651 0.056838263 0.03125996 -0.048141263
-0.029596308 0.011617297 0.018048715 0.07955189 -0.008584579 -0.035299473 -0.048536617 -0.08046366
-0.07614929 -0.068708844 -0.07080035 -0.05516938 0.069900565 -0.07545175 -0.056497212 -0.084378906
-0.06160852 -0.06820313 0.04951765 -0.045241024 -0.037661225 0.01877988 -0.011212677 -0.059393235
-0.044758976 -0.0027146067 0.030472342 0.052776948 -0.05241462 -0.030481001 0.035847757 0.05474847
-0.05732355 -0.070837796 -0.020853503 0.05168554 -0.006654133 -0.06522709 0.00313448 -0.08078026
-0.0791415 0.030998563 0.056903943 0.082839906 -0.02892444 -0.08347991 0.08405218 -0.08527342
-0.035672337 0.06506286 0.02076524 0.01587695 0.056077287 -0.08147423 0.07133369 0.035267696
00000000: 2084 1bbd a8e1 cb3c 00d8 e2ba fc2a b3bc
00000010: 385f 93bd dfe0 a1bd 701d 923b 00c9 8d3d
00000020: dc13 5ebd d4f7 223d 0265 8ebd 0ec9 b03d
00000030: 20e0 2e3b 369e 973d 8c89 df3c 5719 0bbd
00000040: a01e 4b3c 051a 7dbd c0ff 16bb c891 47bc
00000050: 7a5e 90bd d077 923d 5db9 89bd 10cf f4bb
00000060: 7c24 1b3d b88c b63c dcd1 663d 721a 18bd
00000070: 8329 a6bd da73 98bd a210 173d 202f 483d
00000080: bed9 863d 7842 663c 56b1 2cbd 8cbf e5ba
00000090: 1491 a5bd 25fc 4c3d aa87 1e3d e5c3 883c
000000a0: 18b1 90bd c4db 61bd 62b3 b93b 0171 a13d
000000b0: 899c 3a3d 90fa 50bd a24e 8d3d b0a9 603d
000000c0: d5d7 30bd 940d 5f3c ea3b efbc 806b 5b3b
000000d0: 58c1 a4bd b86b 5abc f003 be3c d8d3 88bd
000000e0: acc0 513d a022 1c3d 80d5 1f3c 0af9 903d
000000f0: f716 5f3d 3857 f43c c921 b03a ce60 a93d
00000100: fc05 4e3d d09e dc3b 9e29 533d d836 adbc
00000110: 2923 64bd 8d0e 363d 6fdb 733d 3bbc 91bd
00000120: 760b 5cbd d1fd a5bc f6ca 913d 5765 84bb
00000130: 3c98 e9bc 36a4 993c e2cc 073d c3f9 d3bc
00000140: e4f1 6c3c 330b 83bd eb30 b0bd 9856 633c
00000150: d0c8 8f3b d0b3 80bc d67d 8f3d 4296 19bd
00000160: 4b66 d83c 1580 5bbd 8c5d 3cbd c54e b1bd
00000170: 966e 323d 9028 1d3d aaa3 48bc 52f1 1bbd
00000180: 4fc6 28bd eb6c eb3c 8132 97bc 5213 913d
00000190: 67e5 86bd 355e a4bd 75c8 953c 6348 e0bc
000001a0: 4da3 afbc ab30 9bbb 6560 8f3d 5008 b23d
000001b0: 6444 7d3b 8845 91bd a985 cfbb 3c51 fd3c
000001c0: 0034 d83a 7057 d3bc 1c87 793d 8c0a 84bd
000001d0: 5a83 a9bd d5b9 65bd 5642 233c 6df1 f83c
000001e0: eadf 563d 6b2b b7bd 885d 223d 791f 66bc
000001f0: c38c 4b3d aff6 2b3d 7c57 a8bd b6d5 31bd
00000200: a240 983d 4789 4bbd 15df 4fbb 8f7e 17bd
00000210: 3c4e 0dbd d040 68bb f2f8 bfbb 4627 51bc
00000220: 6d2b e23b d167 0d3d feda d03c c489 2a3d
00000230: 52a3 41bd ec8a ec3c e0db 2e3b 6607 0dbd
00000240: 4050 81bd cb0a a23d 122f 123d 22f1 46bd
00000250: f5fc 79bd 832e cb3b 2cfe a1bd 3730 b5bd
00000260: a654 4d3c 3d4a e8bb b311 92bd 1150 453b
00000270: 607d 8d3d 69ee acbd 428c 323d 75e5 023d
00000280: 0f96 ebbc d029 633d cbb4 0abd 07e3 0abd
00000290: 8c24 6f3c e54e d93b 491a 0bbb e7ae 85bd
000002a0: 0095 cebb 5a72 0dbd aa9d 2a3d 06d6 d23c
000002b0: 2327 e2bc f5cd 97bd bca7 023d 7a6e b3bc
000002c0: 4710 15bd aa09 573d 8bb3 adbd 895c 853c
000002d0: 6818 b6bd 07d7 54bd cdac 9abc 6e92 223d
000002e0: 8fa5 593b 5450 d2bb a019 babc 0b9e 01bd
000002f0: 8651 8fbd d1dd 123d 644e a0bd 7ad3 943d
00000300: 3a30 b23d 2331 d63b 2f73 24bd ac1a 30bc
00000310: 7473 4abd 3dcf 683d 720a 003d c62f 45bd
00000320: f573 f2bc 7a56 3e3c e6da 933c 1aec a23d
00000330: 56a6 0cbc 2e96 10bd 55ce 46bd 22ca a4bd
00000340: 29f4 9bbd 39b7 8cbd c6ff 90bd 4af9 61bd
00000350: 0728 8f3d 7286 9abd 9f69 67bd d9ce acbd
00000360: 3759 7cbd 15ae 8bbd 05d3 4a3d a74e 39bd
00000370: a842 1abd 43d8 993c 60b5 37bc 5246 73bd
00000380: 3055 37bd 8be7 31bb 22a1 f93c a42c 583d
00000390: b6b0 56bd 4bb3 f9bc 19d5 123d ef3f 603d
000003a0: 19cc 6abd 6813 91bd f7d4 aabc 37b4 533d
000003b0: ea0a dabb c895 85bd d96b 4d3b 1f70 a5bd
000003c0: f014 a2bd b3f0 fd3c 1c14 693d f8a7 a93d
000003d0: f2f2 ecbc 84f7 aabd 8d23 ac3d d5a3 aebd
000003e0: 281d 12bd ad3f 853d dd1b aa3c 6110 823c
000003f0: 4cb1 653d f6db a6bd 6617 923d dc74 103d

l2.weight f4 [10, 128]
-0.13809855 -0.11154175 0.19797257 0.16729994 0.06721573 0.083082594 -0.14302576 0.17661203
0.08157891 0.12547639 0.16414559 -0.05687573 -0.20278113 0.09224038 -0.20218466 -0.11273832
0.058962498 0.0492057 -0.06584987 -0.025285363 -0.2033602 -0.035329062 0.09543307 -0.009567158
0.11779774 0.09588876 -0.13782181 0.11482197 0.14406334 -0.11751701 -0.19427511 -0.19279908
0.027894672 0.04610223 -0.03986756 0.12062379 -0.10466515 -0.052578162 0.111267105 -0.0026472
0.021667628 0.005961027 0.007606179 -0.120506555 -0.14223436 -0.23192301 0.13661285 -0.19199492
-0.05915397 -0.1660281 0.043795638 0.021966701 -0.17841935 0.1963225 -0.16944344 0.042985495
0.005188801 -0.16297333 0.020404175 -0.044439808 -0.06939272 -0.013421524 0.2007919 -0.108879656
0.09816807 0.0072453828 0.10526645 -0.09211948 0.023994649 0.13389239 0.053806916 0.033004165
0.099634744 0.09705364 0.19013861 0.11472867 0.13482113 -0.040746205 0.014417668 0.045483515
0.0880907 0.18831877 -0.19831769 -0.17852321 -0.17525142 0.111350976 -0.21618047 0.16446608
0.049359713 0.12638412 0.10147469 0.049619738 0.0847352 0.08152088 0.08571303 0.16310997
0.17653601 -0.07560857 -0.005246328 -0.17612447 0.18239488 0.12598072 0.05450611 0.06587472
-0.1849553 0.19406603 0.057552204 -0.040671743 0.17389189 -0.11421927 0.014871709 0.08018558
-0.14043736 -0.12798221 0.03813457 0.0121340025 -0.043402232 -0.058615416 0.21347474 0.14136277
-0.092824325 -0.11745284 0.12228955 -0.18456806 0.06617259 -0.13134433 0.06479889 0.1782292
-0.08013733 0.14018369 0.09760718 0.12232498 0.011147446 0.19045833 -0.10940982 0.1445592
-0.063715756 0.029633032 0.03621883 0.031183822 0.037709985 0.064457685 0.004252753 0.036804274
-0.110014334 -0.17421857 -0.019837182 -0.06632775 -0.18909732 0.01570791 -0.13319264 -0.06927397
0.21184875 -0.18906942 0.06045953 -0.09281261 -0.13170278 0.022381512 0.1533103 -0.07999379
-0.005216168 0.003039716 -0.007094239 0.19296 -0.11115004 0.17378639 0.11430623 -0.055592295
0.11598964 0.13633911 0.13844667 -0.008476538 -0.066726886 -0.11360451 0.19168559 -0.19011532
-0.020810569 0.008036923 -0.14404051 0.19384407 0.11916384 0.1779053 0.009929694 0.011123
-0.16111313 -0.065763675 0.16620435 -0.0523972 -0.13935046 -0.1392872 -0.07814668 -0.0058649234
0.10439628 0.054815613 -0.06690124 0.19026701 0.007343543 -0.1879696 -0.1572177 -0.19411105
0.14733317 -0.17077231 0.16603886 0.1624614 0.01074403 -0.19524024 -0.203384 0.012679827
-0.17266108 0.16441268 0.05786302 0.15771008 0.12494032 -0.15966472 0.11886366 -0.19532068
-0.15555882 0.04783524 0.027645292 0.026547115 -0.18942621 0.12280391 -0.18097791 0.15135373
0.09072212 0.113005474 0.12924501 -0.120482795 0.19569422 -0.1479546 -0.032935455 0.05864731
0.079691455 0.071625784 -0.07670599 -0.015138731 -0.13087094 0.1706498 -0.08098564 0.14611779
-0.17555298 0.09099212 -0.1317419 0.051890902 -0.15886796 0.015464114 0.15475596 0.15902469
-0.17183904 -0.092436776 0.08849635 -0.015524154 0.113263294 0.06358081 -0.044821102 0.022035582
00000000: b569 0dbe 0070 e4bd 52b9 4a3e ad50 2b3e
00000010: 67a8 893d 3527 aa3d 5875 12be c9d9 343e
00000020: d812 a73d e27c 003e c815 283e 87f6 68bd
00000030: dba5 4fbe 86e8 bc3d 7f09 4fbe 59e3 e6bd
00000040: a982 713d eb8b 493d 4cdc 86bd 4023 cfbc
00000050: a83d 50be 35b5 10bd 6a72 c33d 92bf 1cbc
00000060: f13f f13d 5461 c43d 2921 0dbe c827 eb3d
00000070: 5785 133e c2ac f0bd 0ef0 46be 1f6d 45be
00000080: 5e83 e43c b1d5 3c3d 2b4c 23bd 9b09 f73d
00000090: af5a d6bd 335c 57bd 02e0 e33d a57c 2dbb
000000a0: 4f80 b13c b854 c33b 413d f93b 24cc f6bd
000000b0: e2a5 11be 3a7d 6dbe 3de4 0b3e 519a 44be
000000c0: 6f4b 72bd 4503 2abe 0e63 333d 83f3 b33c
000000d0: 90b3 36be c408 493e 9582 2dbe 8f11 303d
000000e0: d106 aa3b 7be2 26be a826 a73c 8406 36bd
000000f0: c51d 8ebd f4e5 5bbc 649c 4d3e 4cfc debd
00000100: 570c c93d ad6a ed3b f095 d73d 23a9 bcbd
00000110: 6d90 c43c 161b 093e a464 5c3d 602f 073d
00000120: 4d0d cc3d 0fc4 c63d b2b3 423e ddf6 ea3d
00000130: 8d0e 0a3e 7ee5 26bd 1538 6c3c ec4c 3a3d
00000140: e668 b43d a3d6 403e cb13 4bbe cace 36be
00000150: 1c75 33be fb0b e43d 6a5e 5dbe cc69 283e
00000160: 692d 4a3d d76a 013e f6d1 cf3d 113e 4b3d
00000170: a689 ad3d 6bf4 a63d 508a af3d 4d06 273e
00000180: dbc5 343e aad8 9abd 64e9 abbb f959 34be
00000190: b9c5 3a3e 1701 013e cc41 5f3d 53e9 863d
000001a0: ec64 3dbe 3fb9 463e dcbb 6b3d 6a97 26bd
000001b0: b710 323e cbeb e9bd 78a8 733c 5638 a43d
000001c0: d0ce 0fbe c50d 03be ff32 1c3d b2cd 463c
000001d0: 8ac6 31bd b816 70bd 1f99 5a3e 67c1 103e
000001e0: ae1a bebd 1d8b f0bd f272 fa3d 69ff 3cbe
000001f0: 7f85 873d 217f 06be 48b5 843d b781 363e
00000200: 0a1f a4bd 508c 0f3e 46e6 c73d 8585 fa3d
00000210: c7a3 363c 8207 433e 4112 e0bd 5407 143e
00000220: 687d 82bd f9c0 f23c 325a 143d 3775 ff3c
00000230: c975 1a3d 6402 843d ae5a 8b3b 14c0 163d
00000240: 324f e1bd 5a66 32be 9681 a2bc d8d6 87bd
00000250: baa2 41be e0ad 803c a763 08be 83df 8dbd
00000260: e1ee 583e 6a9b 41be 6aa4 773d 8a14 bebd
00000270: 18dd 06be 6f59 b73c 60fd 1c3e c9d3 a3bd
00000280: 63ec aabb f935 473b ca76 e8bb 4e97 453e
00000290: a2a2 e3bd 0ff5 313e 6219 ea3d bfb4 63bd
000002a0: fa8b ed3d 7b9c 0b3e f7c4 0d3e 2de1 0abc
000002b0: 1ba8 88bd 7ba9 e8bd 3a49 443e 97ad 42be
000002c0: ed7a aabc 4cad 033c 5b7f 13be 0f7f 463e
000002d0: 2c0c f43d cf2c 363e 28b0 223c 3e3d 363c
000002e0: d7fa 24be 1baf 86bd 7931 2a3e 729e 56bd
000002f0: e3b1 0ebe 4ea1 0ebe 5e0b a0bd 8b2e c0bb
00000300: b8cd d53d 5686 603d 8403 89bd 5bd5 423e
00000310: 1ba2 f03b 1a7b 40be adfd 20be 0cc5 46be
00000320: 82de 163e f0de 2ebe 1706 2a3e 485c 263e
00000330: ba07 303c 0fed 47be e543 50be 0dbf 4f3c
00000340: 11ce 30be cc5b 283e c601 6d3d c07e 213e
00000350: b6e0 ff3d 267f 23be ca6e f33d 2502 48be
00000360: d04a 1fbe e2ee 433d 6178 e23c 5679 d93c
00000370: f2f8 41be 9e80 fb3d 4652 39be 79fc 1a3e
00000380: 85cc b93d 6a6f e73d ce58 043e afbf f6bd
00000390: 1164 483e 6981 17be 54e7 06bd 2938 703d
000003a0: 4635 a33d 8ab0 923d 0818 9dbd 7108 78bc
000003b0: 0803 06be d2be 2e3e cddb a5bd e79f 153e
000003c0: 29c4 33be 145a ba3d 59e7 06be 8e8b 543d
000003d0: 48ae 22be 325d 7d3c 5978 1e3e 5ed7 223e
000003e0: 93f6 2fbe 7e4f bdbd 933d b53d 0559 7ebc
000003f0: 96f6 e73d a836 823d 5596 37bd f783 b43c
